weights/mlp_002.pt (torch, 313374 bytes, 19 tensors)

net.0.weight f4 [256, 130]
0	0xa5371532	-1.5879901e-16
1	0x00019931	1.4679e-40
2	0x8001c801	-1.63583e-40
3	0x000111f6	9.8279e-41
4	0x80002521	-1.332e-41
5	0x80010c8a	-9.6334e-41
6	0xa4088043	-2.959894e-17
7	0x97b641f5	-1.1778124e-24
8	0x00001f1e	1.1163e-41
9	0x21c94a0d	1.3639891e-18
10	0x000c770a	1.144729e-39
11	0x80006365	-3.5656e-41
12	0x37b5781a	2.1632808e-05
13	0x2f625e7e	2.058815e-10
14	0x0000a825	6.0319e-41
15	0x800236cd	-2.0333e-40
16	0x800124d8	-1.05053e-40
17	0x80004449	-2.4496e-41
18	0x0001257e	1.05285e-40
19	0x80568e1e	-7.948835e-39
20	0x8002e4bf	-2.6573e-40
21	0x80028310	-2.30687e-40
22	0x005362d6	7.657802e-39
23	0x00800d28	1.1759663e-38
24	0x8000a870	-6.0424e-41
25	0x8118492e	-2.7970495e-38
26	0xa8375898	-1.0177751e-14
27	0x80011430	-9.9077e-41
28	0x0002f22c	2.70546e-40
29	0x00028123	2.29997e-40
30	0x0001a22a	1.50009e-40
31	0x006627d9	9.381515e-39
32	0xad10f7f8	-8.2405124e-12
33	0x921ac3e2	-4.8835276e-28
34	0x8002cb6e	-2.56648e-40
35	0xa6f54976	-1.7020202e-15
36	0x81411ebd	-3.5470555e-38
37	0x0000d52c	7.6472e-41
38	0xb5fd830e	-1.8888111e-06
39	0x00026a52	2.21812e-40
40	0x00013cc2	1.13631e-40
41	0x8002fc78	-2.7424e-40
42	0x0001c454	1.62265e-40
43	0x0001377a	1.11737e-40
44	0x9f288518	-3.5685476e-20
45	0xa307b954	-7.3576094e-18
46	0x00839119	1.2082501e-38
47	0x80010211	-9.2577e-41
48	0x01045c0c	2.431061e-38
49	0x80c11fb0	-1.7735618e-38
50	0x80003b62	-2.1303e-41
51	0x36a38925	4.8737443e-06
52	0x1d6d3be2	3.1397648e-21
53	0x00003044	1.7314e-41
54	0x00029796	2.3805e-40
55	0x80012f56	-1.08816e-40
56	0x800088cb	-4.9072e-41
57	0xa3432c8e	-1.0580406e-17
58	0x0029ae57	3.827797e-39
59	0x205d9c00	1.8771044e-19
60	0x00008a89	4.9697e-41
61	0x2f291193	1.5376704e-10
62	0x8000ba90	-6.6926e-41
63	0x0000a816	6.0298e-41
64	0x2448e9fa	4.3566273e-17
65	0x80107f22	-1.514975e-39
66	0x800220b5	-1.95404e-40
67	0x00030d92	2.80375e-40
68	0x0001ef80	1.77752e-40
69	0x00001c1e	1.0087e-41
70	0x8082cfc7	-1.2013151e-38
71	0x24abac9c	7.445184e-17
72	0x00443757	6.264666e-39
73	0x00113d24	1.583137e-39
74	0x80340526	-4.777293e-39
75	0x8001aaf3	-1.5316e-40
76	0x80008580	-4.7891e-41
77	0x8010a4de	-1.528511e-39
78	0x007b1478	1.1303109e-38
79	0x8002a62b	-2.43281e-40
80	0x0001e82b	1.75122e-40
81	0x8000bdce	-6.8089e-41
82	0x0000eaeb	8.4273e-41
83	0xb79aaecc	-1.8439627e-05
84	0x332378be	3.806121e-08
85	0x339c6488	7.2826026e-08
86	0x800290f9	-2.35677e-40
87	0x808d8eda	-1.300005e-38
88	0x00028746	2.32198e-40
89	0x0001544a	1.22073e-40
90	0x80b65e92	-1.6747986e-38
91	0x8041ec8d	-6.054166e-39
92	0x00024353	2.07822e-40
93	0x0002dd87	2.6314e-40
94	0x0001b67b	1.57297e-40
95	0x00007a4a	4.3869e-41
96	0x23b991d3	2.0119499e-17
97	0x00024185	2.07175e-40
98	0xb620a748	-2.3939228e-06
99	0x00010cfb	9.6492e-41
100	0x001cfc21	2.661841e-39
101	0x80697db9	-9.687828e-39
102	0x8000abc9	-6.1625e-41
103	0x02121108	1.0731274e-37
104	0xaca8ee38	-4.8012948e-12
105	0x00005273	2.9577e-41
106	0x00010d3d	9.6584e-41
107	0x80007c57	-4.4605e-41
108	0x0002d4bd	2.59987e-40
109	0x9b13e7ce	-1.2234455e-22
110	0xb07bbc70	-9.1581054e-10
111	0x800199e0	-1.47035e-40
112	0x8002907a	-2.355e-40
113	0x9de02828	-5.9333827e-21
114	0x8045370d	-6.356398e-39
115	0x000140b5	1.15048e-40
116	0xadeb5b4d	-2.6756953e-11
117	0x298a21e8	6.134313e-14
118	0x80006db6	-3.9357e-41
119	0x8002627f	-2.19005e-40
120	0x8002501b	-2.12407e-40
121	0x000025e9	1.36e-41
122	0xada8901c	-1.9163386e-11
123	0x80025c19	-2.1671e-40
124	0x801b1591	-2.487295e-39
125	0x80000f66	-5.524e-42
126	0xad96ab1b	-1.7129012e-11
127	0x00032572	2.8894e-40
128	0x8001354e	-1.10958e-40
129	0xb9e5f030	-0.00043857237
130	0xa6213b8a	-5.5938786e-16
131	0x8000a15f	-5.7889e-41
132	0x0000e4b2	8.204e-41
133	0x0000d246	7.5432e-41
134	0x80001c6d	-1.0197e-41
135	0x8047c420	-6.590677e-39
136	0x0000196c	9.12e-42
137	0x1d02b030	1.7296444e-21
138	0x8001ba2e	-1.58624e-40
139	0x8000f5fd	-8.8244e-41
140	0x80e39fa1	-2.0903922e-38
141	0x00009b82	5.5786e-41
142	0xad99e678	-1.7496435e-11
143	0x004824d1	6.625363e-39
144	0x000212bb	1.9039e-40
145	0x0002b8ce	2.49966e-40
146	0x0001653b	1.2815e-40
147	0x80031d7a	-2.8608e-40
148	0x8022535b	-3.152309e-39
149	0x8e710d9f	-2.9712102e-30
150	0x0486d550	3.1699145e-36
151	0x000cfff1	1.19384e-39
152	0x1b8bb678	2.3113539e-22
153	0x805f9fd4	-8.781708e-39
154	0x8000bc89	-6.7634e-41
155	0x0002e1a9	2.64623e-40
156	0x3a8d2306	0.0010767884
157	0x000235d4	2.02981e-40
158	0x8000e3b6	-8.1687e-41
159	0x0000883d	4.8873e-41
160	0x0000fd7b	9.0932e-41
161	0x81586112	-3.974258e-38
162	0x25f672ae	4.2751907e-16
163	0x00212584	3.04403e-39
164	0x8001598b	-1.23957e-40
165	0x830da154	-4.162137e-37
166	0x801f794c	-2.890414e-39
167	0x00022569	1.97091e-40
168	0x8198762f	-5.6005567e-38
169	0x30d95c0c	1.5814989e-09
170	0x00007ebd	4.5465e-41
171	0x00021fb0	1.95038e-40
172	0x00008259	4.676e-41
173	0x8000ace2	-6.2019e-41
174	0x9a0943c6	-2.8385683e-23
175	0x803f2f23	-5.802546e-39
176	0x98286a78	-2.1767244e-24
177	0x8000aa99	-6.1199e-41
178	0x29d4650c	9.43222e-14
179	0x80b7e1ad	-1.6886853e-38
180	0x000105bc	9.3893e-41
181	0xa247a84a	-2.705862e-18
182	0x0069a8ad	9.703237e-39
183	0x8001a51d	-1.51067e-40
184	0x00016881	1.29324e-40
185	0x8001b2d3	-1.55986e-40
186	0x0000421d	2.3717e-41
187	0x002dc61c	4.203666e-39
188	0x218a8f84	9.389232e-19
189	0xadd2aff0	-2.3952368e-11
190	0x800325ad	-2.89022e-40
191	0x021b5fba	1.1415074e-37
192	0x0000f971	8.9483e-41
193	0x8001713c	-1.32456e-40
194	0x80b02fd2	-1.6180202e-38
195	0x2dadd28e	1.9761328e-11
196	0x8002f667	-2.72063e-40
197	0x800299b8	-2.38815e-40
198	0x8000a70e	-5.9928e-41
199	0x8000b7e1	-6.5963e-41
200	0x16a82a24	2.7168458e-25
201	0x0098ae84	1.40216e-38
202	0xb45c402c	-2.0512442e-07
203	0x0002b42c	2.48304e-40
204	0x809d9610	-1.4472005e-38
205	0x0122f566	2.9930765e-38
206	0x80015271	-1.2141e-40
207	0x00607e6c	8.861559e-39
208	0x35e51320	1.7067396e-06
209	0x80007b7c	-4.4298e-41
210	0x8000d81e	-7.7528e-41
211	0x800320b1	-2.87234e-40
212	0x00004dd5	2.7921e-41
213	0x004396dc	6.207096e-39
214	0x00021255	1.90247e-40
215	0x1a9a07b0	6.370533e-23
216	0x000e431e	1.309774e-39
217	0x32f920f6	2.9002404e-08
218	0x0002677c	2.20794e-40
219	0x80026fa7	-2.23724e-40
220	0x34595688	2.024118e-07
221	0x385ed23a	5.3124713e-05
222	0x0000ddb0	7.9526e-41
223	0x80000798	-2.724e-42
224	0x8001ceaa	-1.65973e-40
225	0x00021427	1.909e-40
226	0x0144b4bf	3.6129193e-38
227	0x802695b8	-3.543458e-39
228	0x0068563b	9.581825e-39
229	0x0002fdf6	2.74775e-40
230	0x001bafba	2.542597e-39
231	0x80595c7e	-8.206539e-39
232	0x8002bfb5	-2.52443e-40
233	0x816e2e1e	-4.3746784e-38
234	0x340af015	1.2939593e-07
235	0x8000df97	-8.0209e-41
236	0x00012d18	1.08012e-40
237	0x00017cce	1.36607e-40
238	0x80006125	-3.4849e-41
239	0x97e56396	-1.4823917e-24
240	0x00871c79	1.2408006e-38
241	0x801c2e9c	-2.588114e-39
242	0x8000a24b	-5.822e-41
243	0xaba318f8	-1.1588777e-12
244	0x80300ba9	-4.412287e-39
245	0x0001aa42	1.52912e-40
246	0xb4642918	-2.1249105e-07
247	0x8053f5a5	-7.710467e-39
248	0x8001ba25	-1.58612e-40
249	0x00012233	1.04104e-40
250	0x80014bae	-1.18984e-40
251	0x000032d4	1.8234e-41
252	0x804bac5d	-6.949495e-39
253	0x0014304a	1.854033e-39
254	0x8029767c	-3.80776e-39
255	0x00018375	1.38993e-40

net.0.bias f4 [256]
0	0xad57bf9b	-1.226388e-11
1	0xb0302f24	-6.409542e-10
2	0x36090b98	2.042134e-06
3	0xaea98ae0	-7.7098994e-11
4	0xb2f6f02c	-2.8747387e-08
5	0x24904467	6.256592e-17
6	0xa9cf7806	-9.2134674e-14
7	0x80023a85	-2.04664e-40
8	0x805b75c4	-8.399276e-39
9	0xb1af1b96	-5.0963065e-09
10	0xb53856c3	-6.8671596e-07
11	0xb40c2602	-1.3052343e-07
12	0x2433c536	3.8981482e-17
13	0x003eed62	5.778958e-39
14	0x24a4c7b1	7.146195e-17
15	0x2eb1d8b9	8.087526e-11
16	0xb7ca4c90	-2.4115929e-05
17	0x01b32ff8	6.5823047e-38
18	0xaaa10b86	-2.860734e-13
19	0xa565fd98	-1.9948505e-16
20	0xba285cce	-0.00064225204
21	0x8112848c	-2.6911063e-38
22	0x00028b6c	2.33686e-40
23	0xb1b59414	-5.284628e-09
24	0x2a6217b1	2.0081052e-13
25	0xb9299e9b	-0.00016176181
26	0x2f9a05c9	2.8016547e-10
27	0xb388a274	-6.3625436e-08
28	0x362c0f1a	2.5638788e-06
29	0x28106296	8.014983e-15
30	0xae89e7a2	-6.271185e-11
31	0xaf601521	-2.0380188e-10
32	0x33c7c31b	9.302149e-08
33	0x37f85fd1	2.9608522e-05
34	0x805a2d1d	-8.281378e-39
35	0x34812868	2.4057522e-07
36	0xaf816bb8	-2.3541502e-10
37	0xb2a5cda0	-1.9302036e-08
38	0xb926f017	-0.00015920434
39	0x28b60fa1	2.0212837e-14
40	0xacd36f76	-6.0093553e-12
41	0x3a9e5f04	0.001208276
42	0x383ab3e9	4.451341e-05
43	0x21d11767	1.4168585e-18
44	0xb1a46652	-4.7846607e-09
45	0xab249bf2	-5.848092e-13
46	0x3411c0ee	1.3574365e-07
47	0x2c29b171	2.4114844e-12
48	0xa1d89dfc	-1.4678547e-18
49	0xb6411116	-2.8769186e-06
50	0x2c8d8874	4.0226104e-12
51	0xae6acf98	-5.338982e-11
52	0x37ae495c	2.0776577e-05
53	0xb93cef20	-0.00018018158
54	0xac54d650	-3.024598e-12
55	0xb3972ce0	-7.039648e-08
56	0x9f8c4116	-5.939998e-20
57	0x37470060	1.1861412e-05
58	0xba258b12	-0.00063149736
59	0x34d1667c	3.900385e-07
60	0x28159860	8.304203e-15
61	0x3a3a101a	0.0007097736
62	0xb660be6a	-3.3489437e-06
63	0xafcbea00	-3.7091752e-10
64	0x33fae038	1.1682317e-07
65	0x2f3e7da5	1.7325037e-10
66	0x0abc9024	1.8157961e-32
67	0x3868ad88	5.5474724e-05
68	0x3041b8d2	7.0475636e-10
69	0x33c93c98	9.370814e-08
70	0x36eecc38	7.116727e-06
71	0x37323030	1.0620846e-05
72	0xb3f7c45a	-1.153755e-07
73	0xb72b7cca	-1.0221449e-05
74	0x299d0578	6.973149e-14
75	0xaf4a0734	-1.8374352e-10
76	0x26869e9a	9.341107e-16
77	0x31b311a0	5.2115894e-09
78	0x8c11013e	-1.1170767e-31
79	0x36abbcba	5.118168e-06
80	0xaf8bba80	-2.541647e-10
81	0xb218e256	-8.899027e-09
82	0x37234d40	9.733543e-06
83	0xb797bf12	-1.8089577e-05
84	0xa43acbba	-4.0504884e-17
85	0x309cc202	1.1405634e-09
86	0x346725dd	2.1527326e-07
87	0xa48a460a	-5.996661e-17
88	0xafda802d	-3.9745043e-10
89	0x2e7d36f8	5.7574362e-11
90	0x2f9f0d2e	2.8931296e-10
91	0x235a25b6	1.1825789e-17
92	0x2b880d75	9.667116e-13
93	0x8019f021	-2.38203e-39
94	0x2f4adf2a	1.8451077e-10
95	0xab92db8c	-1.043486e-12
96	0xa7e810e4	-6.441125e-15
97	0xb404ac03	-1.2356035e-07
98	0xaecd904e	-9.3479544e-11
99	0x03315617	5.211445e-37
100	0x33a0329e	7.459788e-08
101	0x2ba27d44	1.154556e-12
102	0xb3507573	-4.8535593e-08
103	0xb25d2f02	-1.2874581e-08
104	0x3091f170	1.0618759e-09
105	0x00a6c539	1.5315443e-38
106	0xae135425	-3.3498666e-11
107	0x0881213c	7.771718e-34
108	0x07b166d7	2.6692444e-34
109	0x9ea00e80	-1.6946656e-20
110	0x2fbc4e01	3.4252426e-10
111	0x34a30f3e	3.0372206e-07
112	0xb7dfbee0	-2.6672555e-05
113	0x8572613b	-1.1396644e-35
114	0xaa2a0718	-1.5101494e-13
115	0xb810f0f4	-3.455668e-05
116	0x98308ea6	-2.2819486e-24
117	0xb525b838	-6.1735363e-07
118	0x1f41994e	4.099615e-20
119	0x370be696	8.338733e-06
120	0x34040cbe	1.2298094e-07
121	0x2f3f7c89	1.7415593e-10
122	0x00c38b07	1.7957795e-38
123	0x3243ee51	1.1404681e-08
124	0x8002e61c	-2.66219e-40
125	0x29f29200	1.0772286e-13
126	0xafef92a2	-4.3578036e-10
127	0x33479320	4.6467107e-08
128	0xb9818019	-0.00024700238
129	0xb6d303ab	-6.288717e-06
130	0xb8042056	-3.1501368e-05
131	0x8fb8806c	-1.8193267e-29
132	0x805406c5	-7.71661e-39
133	0x93370464	-2.3100012e-27
134	0x2b175dfb	5.37764e-13
135	0xaccf4fd1	-5.8921553e-12
136	0x2ed93463	9.877323e-11
137	0xaee21550	-1.0281076e-10
138	0xba13b97f	-0.0005635246
139	0x2c56fb00	3.0550562e-12
140	0x2b27ac5e	5.9569526e-13
141	0x1c1fd48e	5.2883407e-22
142	0x8064a425	-9.242434e-39
143	0xb13ad460	-2.7187284e-09
144	0x2659a9f2	7.551732e-16
145	0x8124057d	-3.012598e-38
146	0x2fddd5ac	4.035149e-10
147	0x2bc24ded	1.3806158e-12
148	0xb1fbb438	-7.32555e-09
149	0x37b8cc56	2.202966e-05
150	0xb01e9dd1	-5.7704336e-10
151	0xb4de7ca8	-4.1441422e-07
152	0x38776235	5.898085e-05
153	0xb7879530	-1.6162725e-05
154	0x9c21e8e7	-5.357145e-22
155	0xafd2821e	-3.829123e-10
156	0x00022658	1.97426e-40
157	0x2e0d9af4	3.2197314e-11
158	0x29e7686e	1.02765764e-13
159	0xaee88ce1	-1.0575164e-10
160	0xb70f8e2a	-8.556564e-06
161	0x1fa30f7e	6.9058815e-20
162	0xafa058c8	-2.9166913e-10
163	0x2cb44d69	5.124502e-12
164	0xaf9879b2	-2.773511e-10
165	0xac88e308	-3.890558e-12
166	0x0003085d	2.78507e-40
167	0x35654c37	8.5420055e-07
168	0x2e0b1de9	3.1631506e-11
169	0xb2f67aae	-2.8693957e-08
170	0x34474f78	1.856223e-07
171	0x3093363d	1.0711073e-09
172	0xb301f93c	-3.026183e-08
173	0x34ded4d8	4.1505587e-07
174	0xb99c5a35	-0.00029821848
175	0x2d20dcac	9.143946e-12
176	0xa7380bde	-2.5541563e-15
177	0x3046b596	7.229003e-10
178	0x3636a1b6	2.7214242e-06
179	0x982f2b2e	-2.264002e-24
180	0x38aaa9f0	8.137885e-05
181	0xb9038b02	-0.00012544918
182	0x30256443	6.016913e-10
183	0x38341294	4.2932646e-05
184	0xb6c73125	-5.9363833e-06
185	0x2b4fbbe0	7.38019e-13
186	0x2ec9c321	9.1750836e-11
187	0x32c087e9	2.2413547e-08
188	0x347f275e	2.3763047e-07
189	0xb71a5efc	-9.201231e-06
190	0x1e407d59	1.0190317e-20
191	0x3a48ef6a	0.000766507
192	0x35ef6d06	1.7838618e-06
193	0x01338132	3.29698e-38
194	0xaf852253	-2.4216948e-10
195	0xad3693b0	-1.03782954e-11
196	0x30e664af	1.6763319e-09
197	0xadb3cc77	-2.0440745e-11
198	0x002d4e26	4.160632e-39
199	0x01356e3a	3.3323533e-38
200	0x32cecdb0	2.4075092e-08
201	0xafbd8142	-3.4470743e-10
202	0x2e76f5a7	5.6152107e-11
203	0xb8441f27	-4.6759054e-05
204	0xb2435171	-1.13690115e-08
205	0x335dfbd0	5.1684594e-08
206	0xaea89152	-7.6655696e-11
207	0x9aa5795f	-6.8438486e-23
208	0xb5599788	-8.1059306e-07
209	0x00961ec3	1.378636e-38
210	0xb590353b	-1.0744328e-06
211	0x97b60b5c	-1.1764342e-24
212	0xa0a1f274	-2.7434903e-19
213	0x28327b5e	9.907736e-15
214	0xb820c0b7	-3.8326452e-05
215	0x3828ccca	4.0245046e-05
216	0xb80ba70d	-3.329576e-05
217	0xb9e0a057	-0.00042844072
218	0x35e0e260	1.6755184e-06
219	0x302452da	5.978059e-10
220	0x8063670a	-9.128678e-39
221	0xb3a3d028	-7.6281424e-08
222	0x35f5b6d6	1.8307135e-06
223	0x292da726	3.8558695e-14
224	0xb710e882	-8.637204e-06
225	0x371177ee	8.670597e-06
226	0xb4010dbc	-1.2019058e-07
227	0xb3bad036	-8.699173e-08
228	0x2fcb4a80	3.697842e-10
229	0x389fae20	7.614144e-05
230	0x2a0afa0e	1.2343617e-13
231	0xa89bef70	-1.7312296e-14
232	0x1f36cc5b	3.8709038e-20
233	0x2a3f6470	1.6999054e-13
234	0x3693921c	4.3979508e-06
235	0xac8c4527	-3.9867168e-12
236	0xa9ec5982	-1.04960325e-13
237	0x2f5b23aa	1.9930604e-10
238	0x33002800	2.9838702e-08
239	0x8aed40d2	-2.2846653e-32
240	0xb0461409	-7.206045e-10
241	0xbac0df40	-0.0014714971
242	0xa5be62d9	-3.3026728e-16
243	0xb0c697c8	-1.4449535e-09
244	0x2ce6af02	6.556423e-12
245	0xa5becf45	-3.3100197e-16
246	0x2991e51d	6.4790384e-14
247	0xac912400	-4.1251447e-12
248	0x2e9eae0e	7.2159265e-11
249	0x3396da9a	7.024683e-08
250	0x0002f019	2.69802e-40
251	0x2baa1cdb	1.2087236e-12
252	0xad765748	-1.4002861e-11
253	0x1ed3b682	2.2415977e-20
254	0xaab8f5e8	-3.2855598e-13
255	0x140682ac	6.7910416e-27

net.1.weight f4 [256]
0	0x8f335c1a	-8.8431195e-30
1	0x000034ee	1.8988e-41
2	0x94844b3d	-1.335827e-26
3	0x80004112	-2.3343e-41
4	0xbc21c832	-0.00987439
5	0x334241eb	4.5229097e-08
6	0x80005f19	-3.4115e-41
7	0x9b08bc39	-1.1310474e-22
8	0x09f87190	5.9810622e-33
9	0xb1804971	-3.7336396e-09
10	0xba9bafd0	-0.0011877958
11	0x85b101a7	-1.6645607e-35
12	0xafc6f282	-3.6188302e-10
13	0x87c6f550	-2.993591e-34
14	0x0d126e07	4.5122164e-31
15	0x39ec161d	0.00045029903
16	0xb75c9215	-1.3147034e-05
17	0x80010373	-9.3073e-41
18	0x39f37720	0.00046437327
19	0x1ccbd868	1.3489353e-21
20	0x38cf9b9c	9.899514e-05
21	0x19205216	8.288383e-24
22	0x979bf286	-1.0077862e-24
23	0xac99fd5e	-4.376651e-12
24	0x30b816ab	1.3394205e-09
25	0xbbb9dd24	-0.005672114
26	0xbe27b455	-0.16377385
27	0xa402f086	-2.8392988e-17
28	0x073fc07e	1.4425811e-34
29	0x15059963	2.6980137e-26
30	0xbaca071c	-0.0015413496
31	0x3b1ad160	0.0023623332
32	0x800068f1	-3.7646e-41
33	0x91c4fce3	-3.10792e-28
34	0x2c55c6d4	3.0379492e-12
35	0x3cc0ca67	0.023534013
36	0x869ece81	-5.9736425e-35
37	0xbba3b1f7	-0.0049955803
38	0x1e89bb5b	1.4582928e-20
39	0x3ab32cc3	0.0013669956
40	0xbd9ba192	-0.075991765
41	0xb02722c6	-6.080366e-10
42	0xba6f27f7	-0.00091230817
43	0x1c7551c4	8.116938e-22
44	0x8ecf97e6	-5.1175713e-30
45	0x3be42bda	0.0069632353
46	0x136aedfe	2.9652291e-27
47	0x3c036875	0.00802051
48	0x157bc059	5.0840782e-26
49	0xbc253b30	-0.010084912
50	0x3b9fb120	0.00487341
51	0x2dc11ee3	2.1955276e-11
52	0xa85c4f1a	-1.2229606e-14
53	0xbc8114f4	-0.015757062
54	0xb1502730	-3.029026e-09
55	0xbbd7d337	-0.006586458
56	0x8000791a	-4.3443e-41
57	0xbb3341a0	-0.0027352348
58	0xb6d17e0a	-6.2433583e-06
59	0x3c381a16	0.011236688
60	0xabf265af	-1.7223357e-12
61	0xaea2af34	-7.3980294e-11
62	0xb7752d9f	-1.461376e-05
63	0x80011d09	-1.02251e-40
64	0xb77c1671	-1.50255955e-05
65	0x3902db26	0.00012479405
66	0x80001a0b	-9.342e-42
67	0xb91974f8	-0.00014634791
68	0x2ecb9996	9.2586536e-11
69	0x98b254a8	-4.6097403e-24
70	0xbd14566c	-0.03621523
71	0x282a3fcd	9.45073e-15
72	0xbb0bf0e1	-0.0021353292
73	0x372eb0e8	1.0412397e-05
74	0x14ab1896	1.7276285e-26
75	0x3d667fa7	0.056274083
76	0xb406af54	-1.2543507e-07
77	0x800078a4	-4.3278e-41
78	0x28297141	9.405943e-15
79	0x34929fc0	2.7310853e-07
80	0x2b82824a	9.273218e-13
81	0x24e000c2	9.71458e-17
82	0xaa09ed4e	-1.2250376e-13
83	0xafb8b19b	-3.35956e-10
84	0x1370146b	3.0302326e-27
85	0x3c7d427e	0.0154577475
86	0x3d166a7e	0.036722653
87	0x19430069	1.00813465e-23
88	0x9c24bffd	-5.4511187e-22
89	0x01358526	3.333998e-38
90	0x3e30f2b4	0.17280084
91	0xb279d5fa	-1.454236e-08
92	0x2ad9795c	3.8631153e-13
93	0x18d77753	5.5696684e-24
94	0x35e0e899	1.6756995e-06
95	0x27024c09	1.8082343e-15
96	0xaf5af79b	-1.9914952e-10
97	0x38c4668c	9.365109e-05
98	0x2a25d3ef	1.4728473e-13
99	0x80002197	-1.205e-41
100	0x234e67fd	1.1189303e-17
101	0x3b829f04	0.0039862413
102	0x327071ce	1.3995715e-08
103	0x1311a3e0	1.838237e-27
104	0x0c96fa10	2.326166e-31
105	0x80007a58	-4.3889e-41
106	0x30241bd8	5.970242e-10
107	0x9de14685	-5.962992e-21
108	0x80002ad7	-1.5368e-41
109	0x992f7931	-9.071762e-24
110	0x92a3eba6	-1.0344838e-27
111	0xa64d4226	-7.121331e-16
112	0x2fe355df	4.1352075e-10
113	0xa55348c2	-1.8325984e-16
114	0xb8c192ee	-9.230325e-05
115	0x1e4ab875	1.0731936e-20
116	0x2e2522de	3.7547625e-11
117	0xbc166a22	-0.0091805775
118	0x2e0cb3f1	3.1992135e-11
119	0xbbcfd542	-0.006342561
120	0xb428dd02	-1.5726621e-07
121	0x059f39ec	1.4973565e-35
122	0x806ed257	-1.017736e-38
123	0x2bacb112	1.2270482e-12
124	0x1d856143	3.5305373e-21
125	0x2b8d0c5b	1.0022082e-12
126	0xbc904d39	-0.017614948
127	0x89011cf5	-1.5541426e-33
128	0x25d22a12	3.64577e-16
129	0x00f660ea	2.2626298e-38
130	0x80003151	-1.7691e-41
131	0x2ac82824	3.555499e-13
132	0x9ceb0d66	-1.5554459e-21
133	0xaca8db17	-4.799171e-12
134	0xb91c8e56	-0.00014930344
135	0x1a9ebbdc	6.565077e-23
136	0xa9394402	-4.113724e-14
137	0x3ea55250	0.32289362
138	0xb09d8aa3	-1.1462656e-09
139	0x09682115	2.794154e-33
140	0x3b4b92d0	0.003106285
141	0xad1aae35	-8.792568e-12
142	0x1cae72b7	1.1544007e-21
143	0xbc9a4d2d	-0.018835628
144	0xb2f7fa8e	-2.8868524e-08
145	0x12984a2c	9.610833e-28
146	0x17af8ca0	1.1344609e-24
147	0x3ba73f5c	0.0051039886
148	0x846d3248	-2.7882304e-36
149	0x8000f0c1	-8.6366e-41
150	0x80015af0	-1.24458e-40
151	0x9e9d1716	-1.663257e-20
152	0x3900d0bd	0.00012284792
153	0xbcae2de0	-0.02126211
154	0x83b8e739	-1.0867634e-36
155	0x3d366834	0.04453297
156	0x8000617b	-3.497e-41
157	0xb988e788	-0.00026112446
158	0x02e78d8f	3.402365e-37
159	0x3acc5360	0.0015588813
160	0x3f1c3b1b	0.6102769
161	0x152b6746	3.4614643e-26
162	0x3bd077f9	0.006361958
163	0x8f31b4b0	-8.761573e-30
164	0xb7c733a2	-2.3746692e-05
165	0x3457c52a	2.0095163e-07
166	0x000b634f	1.045816e-39
167	0x00021cf2	1.94055e-40
168	0x37ca7baa	2.4137862e-05
169	0x068eb0fb	5.367451e-35
170	0x06fac2d2	9.432581e-35
171	0x39d48c2b	0.00040540224
172	0x0cd8647c	3.3340546e-31
173	0x2eb727f8	8.3289764e-11
174	0x1ecca005	2.1665523e-20
175	0xbd28f2f7	-0.041247334
176	0xb55a6eef	-8.137276e-07
177	0x3dd43c5e	0.103630766
178	0xaab9d580	-3.3010747e-13
179	0x0a67e97a	1.11661575e-32
180	0xbb592819	-0.0033135472
181	0x900bbd1b	-2.7558598e-29
182	0x307d861c	9.2231445e-10
183	0x862dc9f6	-3.268606e-35
184	0x3ca26f1a	0.019828368
185	0x3c86547c	0.016397707
186	0xbd8a9f8d	-0.06768713
187	0xb90e9fe3	-0.00013601738
188	0x3d5250ad	0.05134647
189	0xb10ccb2d	-2.0488173e-09
190	0x0000ba8a	6.6918e-41
191	0x091bbc86	1.874609e-33
192	0x103006d0	3.4715128e-29
193	0x9c94a6db	-9.83695e-22
194	0x329cd07f	1.8255603e-08
195	0x31bea1e3	5.548132e-09
196	0x23b14dc3	1.9223312e-17
197	0xafc0609a	-3.4993236e-10
198	0x92e5874c	-1.4485285e-27
199	0x1cd7bd38	1.4276418e-21
200	0x0000340b	1.867e-41
201	0xa9499b4c	-4.4765664e-14
202	0x80005762	-3.1347e-41
203	0x2a93ebae	2.627598e-13
204	0x3050ba64	7.5934836e-10
205	0x2fd36d40	3.8458303e-10
206	0x0b110c7a	2.793537e-32
207	0x0bb11215	6.8205127e-32
208	0xbd83bdd5	-0.06432692
209	0x815a22d6	-4.006527e-38
210	0xa80da79a	-7.863415e-15
211	0xafef6e5e	-4.3552267e-10
212	0xaf20d6ce	-1.4628229e-10
213	0x800000fd	-3.55e-43
214	0xba705e9e	-0.00091693725
215	0x26d3bcb7	1.4692217e-15
216	0x3c54e6e0	0.012994498
217	0x10605ef0	4.4249348e-29
218	0x3d4a51da	0.049394466
219	0x1d97d2c4	4.0187294e-21
220	0x1faaddc3	7.2364675e-20
221	0x800030a0	-1.7443e-41
222	0xbcc16ce1	-0.023611488
223	0xa4011a40	-2.799465e-17
224	0xbc293d18	-0.010329507
225	0x12ed763b	1.4985949e-27
226	0x0bab23c5	6.5920624e-32
227	0x3a973157	0.001153509
228	0xbd96e8db	-0.073686324
229	0xb48c2f0e	-2.611127e-07
230	0x0d069166	4.1466955e-31
231	0x9d2aa04a	-2.258218e-21
232	0xb33812f7	-4.2858087e-08
233	0xa93e9e20	-4.2325627e-14
234	0x28a24e1f	1.8019493e-14
235	0x39c1f600	0.00036995113
236	0x00000c43	4.399e-42
237	0x16b45c20	2.9138707e-25
238	0xada00143	-1.8190454e-11
239	0x1885208f	3.441257e-24
240	0x3e94c765	0.29058376
241	0xa78e9508	-3.9574497e-15
242	0x9ee6caa5	-2.4436009e-20
243	0x2bc2ec83	1.3850174e-12
244	0xba1dc26e	-0.0006018047
245	0x3b824fc3	0.0039767935
246	0x2710c340	2.008986e-15
247	0xbd58ffcd	-0.052978326
248	0x1bb586d8	3.003108e-22
249	0x25ac4d3d	2.9889582e-16
250	0x181ee6ea	2.0537603e-24
251	0x3263f7bd	1.3269468e-08
252	0x385cf4c8	5.2680058e-05
253	0x97f2d86c	-1.5693516e-24
254	0x16e6cf5d	3.7289369e-25
255	0xab98decc	-1.0862088e-12

net.1.bias f4 [256]
0	0x8fa09cbc	-1.583759e-29
1	0x8001c5b4	-1.62758e-40
2	0x9603e9e8	-1.0655904e-25
3	0x8001ba53	-1.58676e-40
4	0xbc9a4c22	-0.018835131
5	0xb5159e51	-5.5737206e-07
6	0x8001c299	-1.61644e-40
7	0x9b8726c9	-2.235894e-22
8	0x10337cf2	3.539778e-29
9	0xb26be56f	-1.37309675e-08
10	0xbb1645db	-0.002292982
11	0x87d302a8	-3.1749313e-34
12	0xae2e62aa	-3.965065e-11
13	0x090fb321	1.7297225e-33
14	0x8e09632c	-1.6934303e-30
15	0xbbc0e352	-0.0058864737
16	0xb7f86bf4	-2.9614173e-05
17	0x8002d649	-2.60542e-40
18	0x39ba22a5	0.00035502497
19	0xad428395	-1.105684e-11
20	0xbb56c7b7	-0.0032772848
21	0x9a3b5f0d	-3.8747475e-23
22	0x99429781	-1.0060161e-23
23	0xb06032be	-8.1562834e-10
24	0x30dccaee	1.6064783e-09
25	0xbc6536d2	-0.013990121
26	0x3c79a07f	0.015236019
27	0xa40622c9	-2.9086082e-17
28	0x87cfc2e2	-3.126044e-34
29	0x94bc347f	-1.9003855e-26
30	0xbc751b26	-0.014960086
31	0xbc43186e	-0.01190768
32	0x8002dca0	-2.62816e-40
33	0x911d1911	-1.239284e-28
34	0xb0d39ede	-1.5397423e-09
35	0x3d71b291	0.059008185
36	0x87f24541	-3.6452817e-34
37	0xbb543a76	-0.0032383478
38	0x9f0ab260	-2.9370185e-20
39	0xbb4df0c6	-0.003142403
40	0xbe145f2d	-0.14489432
41	0xb105ae36	-1.9453075e-09
42	0xbcd24f4f	-0.025672583
43	0x9c87a169	-8.975274e-22
44	0x8f6bd138	-1.16266886e-29
45	0xbc591cbe	-0.013251482
46	0x94827653	-1.3173316e-26
47	0xbca6d3de	-0.020364698
48	0x960b6a46	-1.1261865e-25
49	0xbceda428	-0.02900894
50	0xbc2c0f67	-0.010501719
51	0xad6c905d	-1.3447102e-11
52	0xa9e55300	-1.0184041e-13
53	0xbcca2379	-0.024675118
54	0x328e0e9c	1.653762e-08
55	0xbc36d6b7	-0.01115959
56	0x8001d46d	-1.6804e-40
57	0xbd139ce4	-0.036038294
58	0xb745cbfc	-1.1789609e-05
59	0x3ca307b8	0.019901142
60	0x2cc0f941	5.484641e-12
61	0xae1e5738	-3.6002507e-11
62	0xb824f145	-3.9325347e-05
63	0x80026c4c	-2.2252e-40
64	0xb89e6189	-7.5521944e-05
65	0xb8fa568c	-0.000119370496
66	0x8000dd1b	-7.9318e-41
67	0x3cff89ba	0.031193603
68	0xae0d9acd	-3.219718e-11
69	0x990532ab	-6.886171e-24
70	0xbcefa451	-0.029253157
71	0xa7f2f2ca	-6.7431725e-15
72	0xbbb64b94	-0.005563209
73	0xb85c5b86	-5.2537325e-05
74	0x9529cc47	-3.4290425e-26
75	0x3e16ea1a	0.1473774
76	0x33f31bfc	1.13206596e-07
77	0x8001a5c6	-1.51304e-40
78	0xa81e439a	-8.785421e-15
79	0xb626cac7	-2.485396e-06
80	0xab3d11e5	-6.717112e-13
81	0xa31ce9f6	-8.50632e-18
82	0xa9f86f4f	-1.10327214e-13
83	0xaf84871e	-2.4106667e-10
84	0x9411988b	-7.350713e-27
85	0xbd60680d	-0.05478673
86	0x3cc377d4	0.02386085
87	0x99c79e92	-2.0640164e-23
88	0x1d9b343f	4.108218e-21
89	0x01b7e042	6.754538e-38
90	0xbdd0119b	-0.10159608
91	0x34af346a	3.2634426e-07
92	0xa998b9d8	-6.782395e-14
93	0x18fc6047	6.523769e-24
94	0xb6a75db8	-4.987898e-06
95	0x28900536	1.5989471e-14
96	0xae8e698f	-6.4761634e-11
97	0xba6771bd	-0.0008828899
98	0xab038288	-4.67217e-13
99	0x8002e81b	-2.66935e-40
100	0xa47284ea	-5.2587968e-17
101	0xbd773bdb	-0.060359817
102	0xb1a60fee	-4.833047e-09
103	0x12da4983	1.3775856e-27
104	0x1041819d	3.816239e-29
105	0x80027578	-2.25811e-40
106	0xb2019603	-7.542897e-09
107	0x9f035b5e	-2.7815906e-20
108	0x800178a6	-1.35116e-40
109	0x9a375687	-3.791341e-23
110	0x93a0d049	-4.0595063e-27
111	0xa60cf7f6	-4.8908307e-16
112	0xb1c4d31c	-5.728351e-09
113	0xa4f5122d	-1.06282604e-16
114	0xb8e4ade5	-0.000109042776
115	0x1e20b5e6	8.507945e-21
116	0xad203274	-9.10615e-12
117	0xbd8fc969	-0.07020838
118	0xaff564a0	-4.463674e-10
119	0xbcb100a9	-0.02160676
120	0xb72d5fa8	-1.0333875e-05
121	0x062ddeb2	3.2701294e-35
122	0x810e27a4	-2.6109722e-38
123	0x2bd25e5e	1.494759e-12
124	0x9d66720e	-3.0499211e-21
125	0xac891d00	-3.896994e-12
126	0x3de07da9	0.10961468
127	0x8992e8b9	-3.5367073e-33
128	0x2705a7f6	1.854851e-15
129	0x83bb5adc	-1.10117325e-36
130	0x8001c019	-1.60747e-40
131	0x2a5702c1	1.9096791e-13
132	0x1d06b262	1.7826974e-21
133	0xad2d5ca6	-9.8544835e-12
134	0xb97f3738	-0.00024339266
135	0x9b81c229	-2.1466733e-22
136	0xa9259094	-3.676276e-14
137	0x3e04c006	0.12963876
138	0xb0c8cc9c	-1.4610069e-09
139	0x89c57a0a	-4.754079e-33
140	0xbbcc552a	-0.0062357383
141	0xadb69c51	-2.0760423e-11
142	0x1daacec0	4.52124e-21
143	0x3d8b36ee	0.067975864
144	0xb1e5d704	-6.6892216e-09
145	0x951e62cc	-3.1985783e-26
146	0x1787f5a2	8.786177e-25
147	0xbc6a108d	-0.014286173
148	0x86958e8d	-5.625703e-35
149	0x8002cf88	-2.58119e-40
150	0x800415e7	-3.75199e-40
151	0x207ab82e	2.1236764e-19
152	0xb9ea1c01	-0.00044652823
153	0x3d573533	0.05254097
154	0x02cc4269	3.0013224e-37
155	0x3e1f73b2	0.15571478
156	0x8000fe49	-9.122e-41
157	0xba624c66	-0.00086326
158	0x83d3c104	-1.244578e-36
159	0xbdb13631	-0.08652914
160	0x3ec3dedb	0.38255963
161	0x9500bd20	-2.5998587e-26
162	0xbc265d1c	-0.010154035
163	0x9061c535	-4.452535e-29
164	0xb9b1ce72	-0.00033913885
165	0xb457c550	-2.0095217e-07
166	0x81afdc76	-6.4601193e-38
167	0x8002621d	-2.18867e-40
168	0xb90f2931	-0.00013652888
169	0x8826793c	-5.009632e-34
170	0x8887123d	-8.129305e-34
171	0xbab038e4	-0.0013444689
172	0x8dadead9	-1.0718486e-30
173	0xaf1678b4	-1.3685303e-10
174	0x1ed5618a	2.2592593e-20
175	0xbd9cdcb4	-0.07659283
176	0xb7930bcb	-1.7529257e-05
177	0x3c1cb250	0.009563997
178	0xabc52cf9	-1.4010174e-12
179	0x0a1dc5e0	7.596491e-33
180	0xbbb4c19e	-0.005516245
181	0x1094379b	5.846138e-29
182	0x305ceb1e	8.0369655e-10
183	0x874cebb3	-1.541652e-34
184	0xbd6e4691	-0.058172766
185	0xbcb227db	-0.02174752
186	0x3cb53b87	0.022123111
187	0xbb1946b2	-0.0023388085
188	0xbdec26e6	-0.11530857
189	0xb1f6844c	-7.1745827e-09
190	0x80032e97	-2.9222e-40
191	0x8a54825d	-1.0231947e-32
192	0x0fbd94da	1.8694174e-29
193	0x9c12f3ce	-4.862246e-22
194	0xb3081344	-3.168249e-08
195	0x3117e256	2.210205e-09
196	0xa44e7c46	-4.4774393e-17
197	0x2f331710	1.6288149e-10
198	0x93e3d95e	-5.7517197e-27
199	0x9cdae086	-1.4484068e-21
200	0x80029990	-2.38759e-40
201	0xaa48742c	-1.7803874e-13
202	0x8001a14c	-1.49698e-40
203	0xaab3b808	-3.1924485e-13
204	0xaf7ed844	-2.3177998e-10
205	0xad6c24fe	-1.3423261e-11
206	0x8dd03082	-1.2830668e-30
207	0x8c275eb4	-1.2893711e-31
208	0xbd4d24e0	-0.050083995
209	0x8454e8ec	-2.5027433e-36
210	0x27b8075a	5.107823e-15
211	0xb0de2cef	-1.6165397e-09
212	0xae58aa64	-4.926405e-11
213	0x8000b50e	-6.495e-41
214	0xbb0463d3	-0.0020201101
215	0xa8741777	-1.3549809e-14
216	0xbd41f446	-0.047352098
217	0x945b2d9b	-1.10656685e-26
218	0xbe68b6f1	-0.22726037
219	0x9eed3aa1	-2.51176e-20
220	0xa03f059c	-1.6180185e-19
221	0x80006878	-3.7476e-41
222	0xbd91ef28	-0.071256936
223	0xa510940a	-1.2540167e-16
224	0xbcad74b3	-0.02117381
225	0x91a5ad00	-2.613903e-28
226	0x8c9273a1	-2.2564453e-31
227	0xbb7a98bc	-0.003823801
228	0xbd8898c6	-0.06669764
229	0xb5a139ba	-1.2012235e-06
230	0x0ab84336	1.7743837e-32
231	0x1d8705c0	3.5740148e-21
232	0xb33234a4	-4.149173e-08
233	0x2bdd874e	1.5740549e-12
234	0xa72695db	-2.3118365e-15
235	0xba2b92d4	-0.00065450114
236	0x80012c1c	-1.07659e-40
237	0x173f4cd7	6.1812414e-25
238	0xaf91f8f7	-2.6552247e-10
239	0x98ebf326	-6.0991593e-24
240	0x3dee728a	0.1164294
241	0xa94d7ce5	-4.5627473e-14
242	0x9f4d9e66	-4.3541463e-20
243	0xac896a53	-3.9055786e-12
244	0xba3e5c6d	-0.00072616973
245	0xbc7715df	-0.015080898
246	0xa9409966	-4.2765616e-14
247	0xbe0bffac	-0.1367175
248	0x1c89d7b7	9.12166e-22
249	0xa87092b9	-1.3354492e-14
250	0x18498948	2.604795e-24
251	0xb33744ff	-4.267076e-08
252	0x380974ec	3.2772237e-05
253	0x9989c40d	-1.4244652e-23
254	0x972e9c5d	-5.641979e-25
255	0xadfa4503	-2.8452357e-11

net.1.running_mean f4 [256]
0	0x3808a3d6	3.257751e-05
1	0xb89a31ec	-7.352591e-05
2	0xb63a6ee0	-2.7780698e-06
3	0xb989a55a	-0.00026253873
4	0x43fc539b	504.65317
5	0xb9a9e268	-0.00032402878
6	0x38928eb9	6.988407e-05
7	0xb98d4354	-0.0002694378
8	0xb3e8a1eb	-1.08327946e-07
9	0xb90792a2	-0.00012929228
10	0x424a03b7	50.503628
11	0xb7b3d90b	-2.1439531e-05
12	0xb690022d	-4.2917877e-06
13	0xb86e5802	-5.6825585e-05
14	0xb92393e7	-0.0001559999
15	0x41f13f34	30.15586
16	0x3f85a19b	1.0439943
17	0xb9f8dae6	-0.00047465338
18	0xc0141ccd	-2.3142579
19	0xbb6fc9a0	-0.0036588684
20	0xc1f07313	-30.056189
21	0x38e427a4	0.00010879271
22	0xb8863a61	-6.400492e-05
23	0xb72014ee	-9.541616e-06
24	0xb934ea8f	-0.00017253518
25	0xc1a3aec7	-20.46034
26	0x4691a41a	18642.05
27	0xb97a7245	-0.00023884427
28	0xb7f48ffb	-2.9154113e-05
29	0xb650ba2a	-3.1102777e-06
30	0xc1e59f52	-28.702793
31	0x441d3adc	628.9197
32	0xb8143ab1	-3.534061e-05
33	0xb7577f58	-1.2844648e-05
34	0x36457c20	2.9427538e-06
35	0xc494fd93	-1191.9242
36	0x37b5bb3a	2.1664066e-05
37	0x43a06f8f	320.87155
38	0x372ee58f	1.04246565e-05
39	0x440bc944	559.1448
40	0xc4829448	-1044.6338
41	0xb946ae10	-0.00018947595
42	0x449818bd	1216.7731
43	0x39422e1a	0.00018518456
44	0xba11c411	-0.0005560527
45	0x4413640c	589.56323
46	0x37589e60	1.2911478e-05
47	0x436eaf9d	238.68599
48	0xb8d58ecd	-0.0001018323
49	0xc5027942	-2087.5786
50	0x43172e43	151.18071
51	0x3931ee1f	0.00016968742
52	0x38e743fe	0.00011027603
53	0x436b4d04	235.30084
54	0x39ab6937	0.00032694053
55	0x42d4e1dc	106.44113
56	0x39416515	0.0001844357
57	0x42b0b332	88.34999
58	0x3e57ad81	0.2106228
59	0xc60675a2	-8605.408
60	0x3a1ae5fd	0.0005908905
61	0xb938f646	-0.00017639351
62	0xbe19b4a5	-0.15010317
63	0x35e9dfda	1.7425002e-06
64	0xbc9e96ab	-0.019358953
65	0x4202ad68	32.669342
66	0xb7d4c11a	-2.536229e-05
67	0xc45ef473	-891.8195
68	0x389bbaf9	7.425802e-05
69	0xb81a0e24	-3.672963e-05
70	0x44cc5cdc	1634.9019
71	0xb9337c34	-0.0001711704
72	0xb989c91b	-0.00026280512
73	0x3f580e1d	0.84396535
74	0xb8dcad3e	-0.00010522686
75	0x45abf98e	5503.1943
76	0xb983b645	-0.00025122068
77	0xb88205e3	-6.1999795e-05
78	0xba04d6a1	-0.00050673826
79	0xbc8b2fc4	-0.01699055
80	0xb49ad90e	-2.8842663e-07
81	0x3553be00	7.888011e-07
82	0x36133dc0	2.194065e-06
83	0x39c760a0	0.0003802823
84	0x389fe328	7.624022e-05
85	0xc3582677	-216.15025
86	0x42d6da46	107.426315
87	0x37918ffa	1.7352391e-05
88	0x385c477a	5.2518655e-05
89	0xb8def830	-0.000106320134
90	0xc6945445	-18986.135
91	0x3a057759	0.00050913315
92	0xb7c84d2a	-2.387779e-05
93	0xb9e172bf	-0.00043000837
94	0xbdc19d6b	-0.09453853
95	0xb7e90898	-2.7779766e-05
96	0x3a9f04e0	0.001213219
97	0x416db630	14.856979
98	0xba085eee	-0.0005202134
99	0xb9247b5e	-0.00015686217
100	0x37877990	1.6149861e-05
101	0x44856e7b	1067.4525
102	0xb69e7e4b	-4.7234694e-06
103	0x35423be8	7.2357807e-07
104	0x374593a4	1.177649e-05
105	0xb8633a12	-5.41751e-05
106	0x39197c7e	0.00014637594
107	0x365c372e	3.2814673e-06
108	0xb82fa447	-4.1876247e-05
109	0xb99c145e	-0.00029769813
110	0xb7b0f2f2	-2.1093965e-05
111	0x37b15fb7	2.1144615e-05
112	0x39f151bf	0.00046028008
113	0x37d72cda	2.5650883e-05
114	0xbf904439	-1.127082
115	0xb94a61f7	-0.00019300716
116	0xb68829c0	-4.057976e-06
117	0x4356b2d6	214.69858
118	0x38f8f49a	0.00011871122
119	0x420487bf	33.132565
120	0xbef8d35c	-0.48598754
121	0x3a02c58c	0.0004988543
122	0x38afa882	8.376037e-05
123	0xbb005bc3	-0.0019585944
124	0x38ef4ccf	0.00011410715
125	0x3b8a60a0	0.0042229444
126	0x4598d335	4890.401
127	0xb7a09390	-1.91422e-05
128	0xba2d989c	-0.0006622167
129	0xb945dcbb	-0.00018869613
130	0x39f73e11	0.00047157754
131	0xbab1956d	-0.0013548561
132	0xb9e04564	-0.0004277631
133	0x3907b6cd	0.00012942702
134	0x40e3a269	7.1135755
135	0x396d94fa	0.0002265758
136	0xb8aa9d02	-8.135477e-05
137	0xc6383ca4	-11791.16
138	0xb758c7f1	-1.2921156e-05
139	0x3756b03d	1.2796428e-05
140	0x4374eb9e	244.92038
141	0x3a533070	0.0008056229
142	0xb94876fc	-0.00019117811
143	0x44661def	920.4677
144	0x38997764	7.317847e-05
145	0xb6b26326	-5.316356e-06
146	0x3762bfa0	1.3515266e-05
147	0x42d4da80	106.42676
148	0xb825dd10	-3.9544946e-05
149	0x37f452a8	2.9125556e-05
150	0xb958b813	-0.00020667938
151	0x37c1a855	2.3085779e-05
152	0x3cab6d7b	0.020926228
153	0xc4b0338e	-1409.6111
154	0x38efa7be	0.000114276525
155	0xc3850028	-266.00122
156	0x37e4f0b4	2.7291804e-05
157	0x410c08e2	8.752169
158	0x38ab875d	8.179129e-05
159	0x459273fd	4686.4985
160	0x42c6e356	99.444016
161	0xb9d470d5	-0.00040519857
162	0xc3e86e3d	-464.86124
163	0xb7f4993c	-2.9158422e-05
164	0xbe426038	-0.18982017
165	0xb795b589	-1.7846718e-05
166	0x3a9f66a4	0.0012161327
167	0x38985d02	7.265249e-05
168	0xc01d6113	-2.45905
169	0xb8bb1fa1	-8.922746e-05
170	0x392522b4	0.00015748554
171	0x3f43319a	0.7624756
172	0xb749ca42	-1.2027625e-05
173	0x3a47dea7	0.00076244253
174	0x39a970ad	0.00032318142
175	0xc5c6a5bf	-6356.7183
176	0xbf1faae7	-0.6237015
177	0x46d3f97d	27132.744
178	0xb816a3c8	-3.591532e-05
179	0xb7c185e9	-2.306975e-05
180	0x42b4eb40	90.45947
181	0x3924390c	0.0001566151
182	0xb809d6e0	-3.2863463e-05
183	0x388b9528	6.655819e-05
184	0x4415c16c	599.0222
185	0xc4c59723	-1580.723
186	0x45154a65	2388.6497
187	0xbe38309c	-0.17987293
188	0x460d3117	9036.272
189	0xb9b75cbf	-0.0003497358
190	0x3a4730a8	0.0007598498
191	0xb97552d4	-0.00023395877
192	0x38ebbba0	0.00011240621
193	0x380229cf	3.1033353e-05
194	0xb25a9c80	-1.2724854e-08
195	0xb9656063	-0.00021875049
196	0xba19b14c	-0.0005862906
197	0x357975dd	9.293124e-07
198	0x39b12fb6	0.00033795618
199	0xb8a47574	-7.842007e-05
200	0xb893bbfa	-7.0445196e-05
201	0xbea553a1	-0.32290366
202	0xba8c4b76	-0.0010703641
203	0xba07972e	-0.0005172369
204	0xb7eab1c2	-2.7977749e-05
205	0xb639dddc	-2.7696287e-06
206	0xba1f7283	-0.0006082432
207	0xb88a0c78	-6.582675e-05
208	0x4482b18c	1045.5483
209	0xb558ad98	-8.071888e-07
210	0x39df377f	0.00042575222
211	0x3bda3e68	0.0066602714
212	0x37927ba0	1.7462124e-05
213	0x37b433b0	2.1481741e-05
214	0xbfd809c3	-1.6877979
215	0x3a0a7acc	0.00052825804
216	0x444ffdc5	831.96515
217	0xb974d3e7	-0.00023348593
218	0x43a811de	336.1396
219	0x397d787d	0.00024172846
220	0xb89eabbc	-7.566015e-05
221	0x36ff81db	7.6147094e-06
222	0x41a1b826	20.214916
223	0x3a65c97a	0.0008765679
224	0xc1ea5912	-29.293491
225	0xb7a44383	-1.9581761e-05
226	0x3978d9ce	0.00023732262
227	0xc3c6ac4b	-397.34604
228	0xc4fdd170	-2030.5449
229	0x39e77f9c	0.0004415483
230	0x39c37693	0.00037281643
231	0x3a12e323	0.0005603304
232	0xb66e7f20	-3.553876e-06
233	0x3792883e	1.7467999e-05
234	0xb74203cf	-1.1564188e-05
235	0x4138545a	11.520594
236	0xb9cf4f14	-0.00039541034
237	0x3a68d6a2	0.00088820804
238	0x371f6ea4	9.502899e-06
239	0xb8befb75	-9.1067435e-05
240	0x46815f35	16559.604
241	0xbb017612	-0.0019754213
242	0x3937f857	0.00017544754
243	0xb9a06444	-0.00030592282
244	0x401f326d	2.4874527
245	0x41c8a0ff	25.078611
246	0xb88bb0e2	-6.6609835e-05
247	0xc5c3ef1e	-6269.8896
248	0xb7db7d70	-2.6165246e-05
249	0x382553e8	3.941721e-05
250	0x37b391be	2.140633e-05
251	0xb75d35df	-1.3185169e-05
252	0x428c2daa	70.08919
253	0x38ecfcec	0.00011300467
254	0xb9bc7e14	-0.0003595209
255	0x3918276c	0.00014510535

net.1.running_var f4 [256]
0	0x3388ced3	6.3706146e-08
1	0x320c63da	8.171776e-09
2	0x3290f1a7	1.6873697e-08
3	0x34badd79	3.4806342e-07
4	0x46ae2cb3	22294.35
5	0x344c2fee	1.9016417e-07
6	0x344165e7	1.8011598e-07
7	0x364c654d	3.0457334e-06
8	0x2ba3f5dd	1.1650087e-12
9	0x3550d3ef	7.779444e-07
10	0x420f98f7	35.89938
11	0x330b7d14	3.2477217e-08
12	0x31bd612e	5.511672e-09
13	0x360d05a6	2.1013925e-06
14	0x357f80cd	9.518233e-07
15	0x41e201ff	28.250975
16	0x3db44c87	0.08803659
17	0x3545d2c7	7.369494e-07
18	0x3e994fd5	0.2994372
19	0x363ef2eb	2.8453603e-06
20	0x42798c1b	62.38682
21	0x352fede8	6.553878e-07
22	0x33134014	3.4284383e-08
23	0x328f0baf	1.6652704e-08
24	0x3485df38	2.4935594e-07
25	0x4422e6dc	651.6072
26	0x4b676c8e	1.5166606e+07
27	0x35dee534	1.6606996e-06
28	0x3300bf93	2.9976558e-08
29	0x3090d934	1.0539112e-09
30	0x48917690	297908.5
31	0x4763e9bc	58345.734
32	0x35a366f5	1.2174411e-06
33	0x33ee3952	1.1093165e-07
34	0x2f84c0d9	2.4147687e-10
35	0x49715903	988560.2
36	0x34d79123	4.0152472e-07
37	0x45ead2bf	7514.3433
38	0x32df6a4f	2.600896e-08
39	0x46883c85	17438.26
40	0x49bc4c4e	1.5425378e+06
41	0x34472e2b	1.8550115e-07
42	0x4798c758	78222.69
43	0x35fb8084	1.873836e-06
44	0x36faf070	7.478571e-06
45	0x47324a24	45642.14
46	0x359435ad	1.1042481e-06
47	0x4538dc84	2957.7822
48	0x342f4e24	1.6326572e-07
49	0x486677d5	235999.33
50	0x44d5f793	1711.7367
51	0x356a864a	8.736721e-07
52	0x34d87216	4.0316144e-07
53	0x4535a147	2906.0798
54	0x350ab942	5.167859e-07
55	0x4463b142	910.76965
56	0x35c5b4fe	1.473032e-06
57	0x45f925e6	7972.7373
58	0x3aa2109a	0.0012364567
59	0x4a9a6078	5.05862e+06
60	0x37c62af4	2.3623441e-05
61	0x35243412	6.1170533e-07
62	0x3b9c7639	0.0047748354
63	0x31214815	2.3469557e-09
64	0x37c0bfb8	2.297746e-05
65	0x429dcc7e	78.8994
66	0x319e9bf3	4.6161346e-09
67	0x480308dc	134179.44
68	0x359afd8b	1.1547685e-06
69	0x3513c56d	5.504906e-07
70	0x47af63c3	89799.52
71	0x32efcc7a	2.7916247e-08
72	0x355c231d	8.2007483e-07
73	0x3e9fae32	0.31187588
74	0x36004362	1.9112708e-06
75	0x4b084e8f	8.933007e+06
76	0x36c8fbab	5.9897625e-06
77	0x34f8a398	4.631263e-07
78	0x3635d3eb	2.7094454e-06
79	0x38782909	5.9166025e-05
80	0x3083887f	9.570299e-10
81	0x31968780	4.380979e-09
82	0x35f0fc19	1.7954764e-06
83	0x35a9cff6	1.2652006e-06
84	0x364cb5e6	3.0504248e-06
85	0x45a425f9	5252.7466
86	0x450f980a	2297.5024
87	0x35530472	7.8610094e-07
88	0x3454db8e	1.9823912e-07
89	0x36408fc6	2.8693917e-06
90	0x4aa9a25a	5.558573e+06
91	0x352d5b99	6.4580814e-07
92	0x3531dd7a	6.625993e-07
93	0x369b0117	4.619487e-06
94	0x3b8a9ee4	0.004230367
95	0x33e42b53	1.0624958e-07
96	0x374a011c	1.20403965e-05
97	0x41984082	19.031498
98	0x36a0be2b	4.79051e-06
99	0x3551761a	7.803043e-07
100	0x3560f3fa	8.3801535e-07
101	0x47896e14	70364.16
102	0x2ea33cfb	7.423214e-11
103	0x30f263d0	1.7636186e-09
104	0x31299c04	2.4681421e-09
105	0x34bd08c9	3.5210385e-07
106	0x35f7ff94	1.8477317e-06
107	0x312652df	2.4203286e-09
108	0x34bbe1f9	3.499588e-07
109	0x3579912e	9.297099e-07
110	0x32af0bf4	2.0378117e-08
111	0x30c393b3	1.4230096e-09
112	0x360498b2	1.9758413e-06
113	0x31faafe5	7.2959545e-09
114	0x3f4e2740	0.8052864
115	0x3538b3b7	6.880686e-07
116	0x32540c31	1.2342796e-08
117	0x4a8f1a94	4.689226e+06
118	0x3582422f	9.705017e-07
119	0x42dd6b98	110.710144
120	0x3c941912	0.01807836
121	0x379d362d	1.8741086e-05
122	0x329781c0	1.7637717e-08
123	0x3848fc68	4.7918787e-05
124	0x3644e6ff	2.9340733e-06
125	0x359be4e7	1.1615019e-06
126	0x4a7f6b50	4.184788e+06
127	0x36b7c06f	5.476227e-06
128	0x38d0fdf9	9.965519e-05
129	0x34afc686	3.2740735e-07
130	0x35d4c0dd	1.5851361e-06
131	0x3806c414	3.21307e-05
132	0x36d12f68	6.234204e-06
133	0x35175416	5.6374245e-07
134	0x40337987	2.8042924
135	0x3652e7e1	3.142741e-06
136	0x3607a763	2.0214e-06
137	0x4ab2ce00	5.859072e+06
138	0x35c4260b	1.461421e-06
139	0x33893b16	6.390307e-08
140	0x4546b275	3179.1536
141	0x36b39a77	5.352598e-06
142	0x36a1efdc	4.826097e-06
143	0x491e5cbf	648651.94
144	0x34194bd8	1.4276827e-07
145	0x32577665	1.2541567e-08
146	0x351b0af9	5.7757967e-07
147	0x445cf9d1	883.9034
148	0x328aade0	1.6144384e-08
149	0x3545a8e2	7.3633976e-07
150	0x35f13d51	1.7973745e-06
151	0x363a6618	2.7775586e-06
152	0x3bae34a9	0.005316336
153	0x48a9fb7f	348123.97
154	0x34e85b3f	4.3279758e-07
155	0x4998c8df	1.2516119e+06
156	0x328cf74c	1.6410603e-08
157	0x40f3d927	7.620258
158	0x366cc5a0	3.5281773e-06
159	0x49dccb1c	1.8087395e+06
160	0x4a1ee5d1	2.6033802e+06
161	0x367c284c	3.7574382e-06
162	0x4500f67a	2063.4048
163	0x33c5c310	9.209009e-08
164	0x3abb1591	0.0014273395
165	0x2f7c6ee5	2.2958664e-10
166	0x3621ddc1	2.4119947e-06
167	0x335e2d8b	5.1729824e-08
168	0x3f19ec9f	0.6012668
169	0x32cc4d5e	2.3783908e-08
170	0x3514995a	5.535745e-07
171	0x3e276eaf	0.16350816
172	0x3316e5f9	3.5133755e-08
173	0x361abaac	2.3056446e-06
174	0x36eb2125	7.0074043e-06
175	0x4a6d8b85	3.8919372e+06
176	0x3de6443b	0.11243483
177	0x4b604cb6	1.4699702e+07
178	0x3433463b	1.6696224e-07
179	0x33edd83f	1.10755074e-07
180	0x4415c13f	599.0195
181	0x34a1b8a0	3.012292e-07
182	0x3603897f	1.9600554e-06
183	0x34c4b361	3.663836e-07
184	0x481a9690	158298.25
185	0x47a4c7a9	84367.32
186	0x4a31c1c9	2.9123702e+06
187	0x3b2b843f	0.0026171354
188	0x4a1a34c7	2.5265138e+06
189	0x34208d37	1.4952535e-07
190	0x371d6956	9.382455e-06
191	0x3495e463	2.7919586e-07
192	0x3639005c	2.7567357e-06
193	0x321b0309	9.022878e-09
194	0x2eace458	7.8622164e-11
195	0x35d0a0ef	1.5544045e-06
196	0x3626f878	2.4880555e-06
197	0x3031d3c3	6.4693156e-10
198	0x36b34bdd	5.3434474e-06
199	0x3571504c	8.9896344e-07
200	0x324558ca	1.14870975e-08
201	0x3bd42572	0.0064741904
202	0x38936bf8	7.029617e-05
203	0x36537071	3.15069e-06
204	0x322348e6	9.504424e-09
205	0x3201db99	7.558719e-09
206	0x344a8943	1.8862652e-07
207	0x3695400d	4.4480025e-06
208	0x4901666f	530022.94
209	0x300e939b	5.186906e-10
210	0x359a5ad6	1.1500331e-06
211	0x3646efeb	2.964395e-06
212	0x34cb5a1d	3.7877263e-07
213	0x35a07d01	1.195731e-06
214	0x426af5d6	58.740074
215	0x3831b761	4.2370873e-05
216	0x47001ad5	32794.832
217	0x36392fbc	2.7594933e-06
218	0x4ae60893	7.5377375e+06
219	0x368c5ec9	4.1833596e-06
220	0x3687f2ab	4.051564e-06
221	0x32f5b116	2.8602283e-08
222	0x47f1aca7	123737.305
223	0x36e31f1f	6.76875e-06
224	0x4528ce39	2700.889
225	0x34816c6d	2.4107013e-07
226	0x3614d610	2.217832e-06
227	0x46ce1793	26379.787
228	0x497bd4d2	1.0315011e+06
229	0x3685dc6d	3.98937e-06
230	0x34e136b4	4.1949318e-07
231	0x35a55e4d	1.2320903e-06
232	0x342a9f11	1.5890352e-07
233	0x31ca02ab	5.879277e-09
234	0x32afbe4e	2.0459222e-08
235	0x41a7fb6b	20.997763
236	0x352d2f6a	6.451652e-07
237	0x36e76d38	6.897051e-06
238	0x3203a3ed	7.662476e-09
239	0x35ad0745	1.289162e-06
240	0x4b23cb24	1.0734372e+07
241	0x378247fa	1.5530724e-05
242	0x3633d073	2.6794412e-06
243	0x36b587d3	5.4100324e-06
244	0x4394a058	297.2527
245	0x43c09b7e	385.21478
246	0x348e9a29	2.6561727e-07
247	0x4a9518be	4.885599e+06
248	0x35588e8d	8.067371e-07
249	0x3400b0f1	1.19853e-07
250	0x3488fb8c	2.5514998e-07
251	0x31c26263	5.6573284e-09
252	0x4464e73a	915.6129
253	0x35cae8c6	1.5117919e-06
254	0x35a97fd2	1.2628682e-06
255	0x3829e8a2	4.0509396e-05

net.4.weight f4 [128, 256]
0	0x80003c02	-2.1527e-41
1	0x80008fd1	-5.1592e-41
2	0x8000eb77	-8.4469e-41
3	0x000059a4	3.2157e-41
4	0x8000410f	-2.3339e-41
5	0x00005322	2.9822e-41
6	0x80002d3f	-1.6231e-41
7	0x0002806e	2.29743e-40
8	0x80030bd9	-2.79757e-40
9	0x800085f6	-4.8056e-41
10	0x8001864d	-1.40014e-40
11	0x000029c8	1.4988e-41
12	0x0000fb19	9.0077e-41
13	0x00002cc6	1.6062e-41
14	0x00017597	1.34019e-40
15	0x00025c66	2.16817e-40
16	0x00032d6b	2.918e-40
17	0x00023635	2.03117e-40
18	0x0000dd49	7.9382e-41
19	0x8000f62b	-8.8308e-41
20	0x0000842c	4.7414e-41
21	0x8001122f	-9.8359e-41
22	0x80006b60	-3.8519e-41
23	0x80032a24	-2.90624e-40
24	0x0002d496	2.59932e-40
25	0x8002c705	-2.55066e-40
26	0x8000310b	-1.7593e-41
27	0x00011a3a	1.01244e-40
28	0x0000b8a1	6.6232e-41
29	0x8000def5	-7.9982e-41
30	0x0000ae81	6.26e-41
31	0x00001d49	1.0506e-41
32	0x8000d02b	-7.4677e-41
33	0x80008ce2	-5.0539e-41
34	0x00004ead	2.8224e-41
35	0x800135e1	-1.11164e-40
36	0x80026577	-2.2007e-40
37	0x000046eb	2.544e-41
38	0x80025133	-2.128e-40
39	0x000118f2	1.00784e-40
40	0x0000a919	6.0661e-41
41	0x00005f5b	3.4207e-41
42	0x800106fe	-9.4344e-41
43	0x0000daf5	7.8547e-41
44	0x000140d3	1.1509e-40
45	0x80005a8f	-3.2486e-41
46	0x00030c8a	2.80005e-40
47	0x80009146	-5.2114e-41
48	0x0002c2bc	2.53529e-40
49	0x00001966	9.111e-42
50	0x80017c6b	-1.36468e-40
51	0x0001ca69	1.64447e-40
52	0x8002015f	-1.84163e-40
53	0x00011b69	1.01668e-40
54	0x80022f9f	-2.00754e-40
55	0x80017893	-1.3509e-40
56	0x80019d9f	-1.48379e-40
57	0x80009e93	-5.6886e-41
58	0x80007a89	-4.3957e-41
59	0x000049a3	2.6416e-41
60	0x80020215	-1.84418e-40
61	0x800069e7	-3.799e-41
62	0x00017c42	1.36411e-40
63	0x00028b61	2.33671e-40
64	0x00013ffc	1.14789e-40
65	0x800100e1	-9.2151e-41
66	0x800173c5	-1.33366e-40
67	0x0000be82	6.8341e-41
68	0x0001462e	1.17011e-40
69	0x0002abe4	2.45334e-40
70	0x000184fd	1.39543e-40
71	0x00011053	9.7692e-41
72	0x8000c720	-7.1433e-41
73	0x80009420	-5.3137e-41
74	0x8001c77e	-1.634e-40
75	0x0001ad9f	1.54119e-40
76	0x0001499c	1.18242e-40
77	0x80015969	-1.2391e-40
78	0x000044f8	2.4741e-41
79	0x0002293f	1.98467e-40
80	0x80031b67	-2.85337e-40
81	0x00015012	1.2056e-40
82	0x80005782	-3.1392e-41
83	0x0001c25b	1.61557e-40
84	0x0001b1c7	1.5561e-40
85	0x0002316e	2.01403e-40
86	0x8001a4f9	-1.51017e-40
87	0x00001f81	1.1301e-41
88	0x80007c7b	-4.4655e-41
89	0x8000c7ba	-7.1648e-41
90	0x800088a6	-4.902e-41
91	0x8000eaae	-8.4187e-41
92	0x000177e4	1.34844e-40
93	0x000019ca	9.251e-42
94	0x80002363	-1.2694e-41
95	0x0000a476	5.8997e-41
96	0x0000f4f9	8.788e-41
97	0x80000365	-1.218e-42
98	0x00007cdc	4.4791e-41
99	0x800054f0	-3.047e-41
100	0x80016327	-1.27405e-40
101	0x0000fe42	9.121e-41
102	0x8000597a	-3.2098e-41
103	0x0001625e	1.27123e-40
104	0x80013591	-1.11052e-40
105	0x8001ca5c	-1.64428e-40
106	0x800042dd	-2.3986e-41
107	0x8001033c	-9.2996e-41
108	0x00008a69	4.9652e-41
109	0x8000aaf6	-6.1329e-41
110	0x00012158	1.03797e-40
111	0x8001fb21	-1.81924e-40
112	0x8000c883	-7.193e-41
113	0x00007040	4.0268e-41
114	0x800016d3	-8.188e-42
115	0x8000acff	-6.206e-41
116	0x8000780e	-4.3068e-41
117	0x0000d94f	7.7956e-41
118	0x8000badc	-6.7033e-41
119	0x0000fc27	9.0455e-41
120	0x0000ac5d	6.1832e-41
121	0x8002ebec	-2.68304e-40
122	0x00030b22	2.795e-40
123	0x800000e7	-3.24e-43
124	0x00011d79	1.02408e-40
125	0x80000f4c	-5.487e-42
126	0x8002b800	-2.49678e-40
127	0x800027c6	-1.4268e-41
128	0x000083c7	4.7273e-41
129	0x800004e6	-1.757e-42
130	0x8002ea45	-2.67711e-40
131	0x00003d6a	2.2031e-41
132	0x0001f223	1.78698e-40
133	0x0001cabb	1.64561e-40
134	0x8000aed0	-6.2711e-41
135	0x00030921	2.78781e-40
136	0x800153b2	-1.2186e-40
137	0x80009567	-5.3595e-41
138	0x00008881	4.8968e-41
139	0x00007cc3	4.4756e-41
140	0x0000fffa	9.1827e-41
141	0x000166f4	1.28768e-40
142	0x0000ba59	6.6849e-41
143	0x800068e3	-3.7626e-41
144	0x0000ea5d	8.4074e-41
145	0x0000da01	7.8205e-41
146	0x0000da36	7.828e-41
147	0x80010327	-9.2966e-41
148	0x80008c48	-5.0323e-41
149	0x800049dd	-2.6497e-41
150	0x00013117	1.09446e-40
151	0x8001af53	-1.5473e-40
152	0x8001ef1c	-1.77612e-40
153	0x8000d85e	-7.7618e-41
154	0x80009ccf	-5.6252e-41
155	0x00025a03	2.15961e-40
156	0x0000cffb	7.461e-41
157	0x80009099	-5.1872e-41
158	0x00017e4e	1.37145e-40
159	0x00002c46	1.5882e-41
160	0x0000c4cc	7.0597e-41
161	0x80003b1c	-2.1204e-41
162	0x8000c46f	-7.0467e-41
163	0x00009d84	5.6506e-41
164	0x0000710d	4.0555e-41
165	0x00003397	1.8507e-41
166	0x80004ba9	-2.7142e-41
167	0x0001d9d2	1.69975e-40
168	0x0000d0aa	7.4855e-41
169	0x000053ef	3.011e-41
170	0x80003f41	-2.2691e-41
171	0x00004725	2.5522e-41
172	0x80025468	-2.1395e-40
173	0x80007f20	-4.5604e-41
174	0x800165b8	-1.28325e-40
175	0x0001a375	1.50473e-40
176	0x80022e5e	-2.00304e-40
177	0x0001290a	1.06558e-40
178	0x8000fd96	-9.097e-41
179	0x80025197	-2.1294e-40
180	0x800071a0	-4.0761e-41
181	0x8000697f	-3.7845e-41
182	0x00026ef5	2.23475e-40
183	0x8001febe	-1.8322e-40
184	0x00021a2a	1.93057e-40
185	0x80018762	-1.40402e-40
186	0x8000f1c6	-8.6732e-41
187	0x00009a30	5.5312e-41
188	0x80004bb2	-2.7154e-41
189	0x00005fcc	3.4365e-41
190	0x8000a1a1	-5.7982e-41
191	0x800272ba	-2.24827e-40
192	0x0000b650	6.5401e-41
193	0x80009c79	-5.6132e-41
194	0x8000484c	-2.5935e-41
195	0x8002075b	-1.8631e-40
196	0x0000fbdd	9.0352e-41
197	0x8000266d	-1.3785e-41
198	0x800062ac	-3.5397e-41
199	0x0001593a	1.23844e-40
200	0x800238e8	-2.04085e-40
201	0x80007387	-4.1443e-41
202	0x800062d4	-3.5453e-41
203	0x0000a4ae	5.9076e-41
204	0x000088f4	4.913e-41
205	0x8001a122	-1.49639e-40
206	0x0000463d	2.5197e-41
207	0x80007cd0	-4.4774e-41
208	0x00012a18	1.06936e-40
209	0x0002b7f9	2.49668e-40
210	0x0001679f	1.29008e-40
211	0x800016be	-8.158e-42
212	0x800268c3	-2.21252e-40
213	0x000077f9	4.3038e-41
214	0x00004ce5	2.7585e-41
215	0x80001c4e	-1.0154e-41
216	0x8000f3e6	-8.7494e-41
217	0x800119dd	-1.01113e-40
218	0x800094af	-5.3338e-41
219	0x800197fc	-1.46357e-40
220	0x8001dfcc	-1.72119e-40
221	0x0000e4e8	8.2116e-41
222	0x80004409	-2.4406e-41
223	0x0001b9f5	1.58544e-40
224	0x000039ef	2.0783e-41
225	0x00007e5d	4.533e-41
226	0x8000b49c	-6.479e-41
227	0x00004bbd	2.717e-41
228	0x00021c6b	1.93865e-40
229	0x8002ef31	-2.69477e-40
230	0x00006330	3.5582e-41
231	0x80007b70	-4.4281e-41
232	0x8000ee60	-8.5513e-41
233	0x8000c47c	-7.0485e-41
234	0x800021cd	-1.2125e-41
235	0x8001f59c	-1.79944e-40
236	0x00005e39	3.3801e-41
237	0x80026134	-2.18541e-40
238	0x0002e6b5	2.66433e-40
239	0x8000075b	-2.639e-42
240	0x00031dd2	2.86204e-40
241	0x8000b2c3	-6.4128e-41
242	0x8001fbd2	-1.82172e-40
243	0x8001a3e9	-1.50635e-40
244	0x00002312	1.2581e-41
245	0x0002345a	2.02451e-40
246	0x000289fa	2.33168e-40
247	0x8000ae8b	-6.2614e-41
248	0x000161f5	1.26976e-40
249	0x80006cb5	-3.8997e-41
250	0x8000e4d9	-8.2095e-41
251	0x800107e1	-9.4662e-41
252	0x80019bde	-1.4775e-40
253	0x800007c5	-2.787e-42
254	0x00006119	3.4832e-41
255	0x8000e891	-8.3429e-41
